data.pth (torch, 14687 bytes, 6 tensors)

l1.weight f4 [8, 222]
000000 08 f6 0c 3f 89 ed 1e 3f 49 da 8e 3d e9 66 8d bd
       0.55062914 0.620812 0.06975228 -0.06904394
000010 b7 ed 64 3f 94 58 e1 be 84 a7 2f 3f 68 67 4d 3f
       0.89425224 -0.44012892 0.68614984 0.8023591
000020 c2 73 48 bd e2 fe 46 bf 00 42 86 be be fa db 3e
       -0.04893852 -0.7773267 -0.2622223 0.4296474
000030 6f 70 bb 3d fa 56 12 bf 01 60 58 bf cd 75 ca 3e
       0.091523044 -0.57163966 -0.8452149 0.39543
000040 20 80 2a bf 29 c4 02 3f be 6d a3 3d 12 d9 41 3f
       -0.66601753 0.51080567 0.07979916 0.7572185
000050 c1 5e 91 3e 98 a2 9c be e9 e5 68 bd 25 7b 31 3f
       0.28392604 -0.305928 -0.056859884 0.6932853
000060 19 8f ee be 8e d9 0b 3f 94 f9 58 be 65 12 23 3f
       -0.4659355 0.5462884 -0.21188956 0.6369994
000070 39 31 cd 3e e0 19 e9 3e 4e 8c 72 3e bb 14 6c 3f
       0.40076616 0.45527554 0.23686334 0.9221913
000080 68 a2 b2 3d 96 5a 8b bf 48 33 bc be a1 e3 7a 3e
       0.08722383 -1.088702 -0.36757874 0.24500896
000090 b5 5e 3f be bf ca 2e 3f eb f3 94 3e ac e1 89 3f
       -0.18688472 0.68278116 0.29092345 1.0771995
0000a0 3b 83 fc 3e da 46 07 bf 5e 14 e9 3e e0 ec 44 3f
       0.4931887 -0.52842486 0.4552335 0.7692394
0000b0 4a 09 94 be 8a 07 ae 3e 91 32 46 3f a2 8a ea be
       -0.28913337 0.33990127 0.7742091 -0.45808893
0000c0 75 2c b6 3f 08 1f b7 3e 79 b1 4d bc 64 37 cd ba
       1.4232317 0.35765862 -0.01255452 -0.0015656766
0000d0 46 5a d5 3e eb 48 30 3f cc 0f fb 3e 60 f6 5d be
       0.41670436 0.68861264 0.4903549 -0.21676016
0000e0 0f 79 38 bf ef 0e b0 3d cf c0 2a 3f f7 a8 1f bf
       -0.7205972 0.08596598 0.6670045 -0.62367195
0000f0 2c 27 0d bf 62 8c 2d 3e be a0 07 bf 9b b8 03 bf
       -0.55137897 0.16948083 -0.5297965 -0.5145356
000100 70 1d 48 bf 31 a2 4e bf 05 f8 25 bf 9a 66 00 3f
       -0.7816992 -0.80716234 -0.6483157 0.5015656
000110 ba f9 7a bf 67 df 0d be a9 01 7c be 84 87 af be
       -0.980373 -0.13854752 -0.24610008 -0.34283078
000120 1d ce b6 3e bb b6 30 3e a2 c4 9f 3e 9d c2 72 3d
       0.35704127 0.17257206 0.31204706 0.05926763
000130 b4 c0 b5 3e 91 a5 65 3e be d2 f8 3e 92 ac cf 3e
       0.35498583 0.2242644 0.48598284 0.40561348
000140 20 a5 fb be 2d fb 03 3f 03 87 4b 3f df 69 14 3f
       -0.49149418 0.5155514 0.79502887 0.57974046
000150 89 1c 0d 3f 12 57 0d 3e 68 cf 08 3f bc a3 6d be
       0.55121666 0.13802746 0.53441477 -0.23206991
000160 05 d1 57 3e 58 bc 1d bf a5 9c 4b 3f ee 8d 12 bf
       0.21075828 -0.61615515 0.79535896 -0.5724782
000170 6b 7c 3a bf 21 43 c2 be 25 1f c8 be c2 32 6b be
       -0.72846097 -0.3794184 -0.3908626 -0.22968581
000180 dc 78 91 be 09 50 44 3f 62 58 bd 3e b3 2e d8 bd
       -0.2841252 0.76684624 0.36981493 -0.10555782
000190 c6 29 89 bd b6 70 58 3f 2c 22 02 bf a1 fd 74 bf
       -0.06697421 0.84546983 -0.5083339 -0.95699507
0001a0 c5 a5 d1 3e 05 fc 4a bf e4 a4 17 bf 35 3c 82 bf
       0.40946785 -0.792908 -0.5923598 -1.0174624
0001b0 56 11 be be 1b 88 c6 3e 30 4b b6 be 88 35 00 bf
       -0.371226 0.38775715 -0.3560424 -0.5008168
0001c0 83 d5 18 bf 42 e4 52 bf 3c a6 73 3f 42 4b 7b 3f
       -0.59700793 -0.82379544 0.9517553 0.9816171
0001d0 07 6a 5c bd 03 c8 8a 3f 76 94 90 3e 8f 1b 82 3f
       -0.053812053 1.0842289 0.28238267 1.016466
0001e0 1d 09 69 bf 2f 4f cb 3e 9a 30 9b 3e 0c 8f 51 bf
       -0.9102953 0.3970885 0.30310518 -0.818589
0001f0 61 56 c9 be 5f c1 61 3f fe 89 93 3f 1c cc d3 be
       -0.39323714 0.88185686 1.1526487 -0.4136666
000200 e6 29 c8 3e ce f9 15 3f af 1a fa 3e 39 ab c9 3e
       0.39094466 0.58584297 0.48848483 0.39388445
000210 e3 21 98 3f de c2 40 3f 28 e1 0d bf ee 0a 86 be
       1.1885341 0.75297344 -0.55421686 -0.26180214
000220 21 f2 54 be 4a 10 17 3e b1 0d 08 3f 91 b6 ff 3e
       -0.2079549 0.14752308 0.5314589 0.49943975
000230 26 49 ff be c2 fc 87 be 30 cc 6e 3f 7a 68 bc be
       -0.49860495 -0.26560026 0.93280315 -0.3679846
000240 27 53 b5 3e a0 1e 7c bf 95 b1 22 3f 16 b2 ee be
       0.35415003 -0.9848423 0.6355222 -0.46620244
000250 96 ce 5e 3f 47 47 2d bd 7f bd 05 3f fc de 04 bf
       0.87033975 -0.042304303 0.52242273 -0.5190275
000260 94 b8 ee 3e f5 e9 f0 3e 2f 24 13 3f 4d aa 04 3f
       0.46625197 0.47053495 0.57477087 0.5182236
000270 5c 58 3f 3f 22 10 b9 3f 07 09 31 3f 9a e3 de 3e
       0.747442 1.4458048 0.691544 0.4353302
000280 b2 1d db 3e 48 46 a9 be 8c 6f 26 3f 2a 84 13 bf
       0.42796093 -0.33061433 0.6501396 -0.5762354
000290 c5 83 93 bd 13 37 1d bf de 4e fa be 7b f1 8a 3f
       -0.072028674 -0.6141216 -0.48888296 1.0854944
0002a0 d1 7b 99 3f 2e 41 24 3f 93 52 e7 bd 33 fb 42 3f
       1.1990911 0.64161956 -0.11295047 0.7616455
0002b0 db 3f 08 3f 5a fc cb 3e 88 09 9d be a0 68 a4 be
       0.53222436 0.39840966 -0.30671334 -0.32111073
0002c0 da d6 f6 3f ba eb c3 3e 39 8d ce 3e c9 87 2e be
       1.9284317 0.38265783 0.4034212 -0.17043985
0002d0 55 7a 37 be f9 1c 99 bf 22 57 c7 3e 49 7e e1 3e
       -0.1791776 -1.1961967 0.38933665 0.4404166
0002e0 34 63 d3 3f 17 91 96 3f 40 60 92 3d 7e 6e 81 3d
       1.6514649 1.1763028 0.071472645 0.06319903
0002f0 6f 82 8a 3c 3e a8 98 bd 4e 7b ba 3e 74 04 1f bf
       0.016907899 -0.07453965 0.364222 -0.6211617
000300 b0 8d 27 3f 4c b0 3b 3f f9 15 f0 3e df c2 3b 3f
       0.6545057 0.7331588 0.46891764 0.73344225
000310 53 99 05 3f 67 70 1a 3f f7 71 b6 3e 00 59 08 bf
       0.5218708 0.6032776 0.35633823 -0.53260803
000320 cc 4b 15 3e 63 eb f5 bd 7e c4 ad be c6 a7 4b 3f
       0.14579695 -0.12007787 -0.33938974 0.79552877
000330 a2 e6 08 bd d4 e8 fd 3e a1 d1 4f 3f 77 0b d0 be
       -0.033423074 0.49591696 0.81179243 -0.40633747
000340 8a 01 a5 be 98 1e fe 3e a8 d3 76 bf 12 d2 1d 3f
       -0.32227737 0.49632716 -0.9641671 0.61648667
000350 17 d1 95 3e da 4f 40 be 31 2c d9 3e d6 12 05 3f
       0.29261085 -0.18780461 0.42416528 0.51981866
000360 c5 81 42 3f bc 69 e7 3e ee 81 e8 bd c4 6d d8 3e
       0.7597926 0.45197856 -0.11352907 0.42271245
000370 35 f8 a5 3f e7 be 2e 3f 81 8a 29 3f 9a db 8e 3e
       1.2966372 0.68260044 0.66226965 0.27901918
000380 f3 cc 0a 3e 08 e5 c7 3f 11 4d b0 3e a1 dc d1 3e
       0.13554744 1.561677 0.34433797 0.4098864
000390 a9 3d ec be 38 dc de be c2 fc ad 3e 8c 9b d7 3e
       -0.46140793 -0.4352739 0.339819 0.4211086
0003a0 1c a9 a8 3e 1b 36 78 3f 2b 99 2b 3e 9e ae b1 3e
       0.3294152 0.9695756 0.16757648 0.34703535
0003b0 53 0e 16 bf fa 35 32 3f 9c 7b 3a bd e0 41 d7 3d
       -0.5861561 0.6961361 -0.04552804 0.105106115
0003c0 b5 46 ea 3d a7 d7 33 bf 44 dd 36 be a3 1d 0f 3f
       0.114392675 -0.70250934 -0.17857844 0.559046
0003d0 b9 bb d6 bd 45 55 bf 3d a1 54 3d 3e 6b 09 8f be
       -0.10485024 0.09342436 0.18489315 -0.27936873
0003e0 80 65 94 3e e3 22 f2 be ee e7 a8 bc 1e c9 df 3e
       0.28983688 -0.4729224 -0.020618405 0.43708128
0003f0 ce 0d 71 3d c6 ae 50 3f 16 08 9f bd e8 56 83 bf
       0.058851056 0.81516683 -0.07765214 -1.0260897

l1.bias f4 [8]
000000 f9 d5 b3 3f 5b b0 a4 3f f5 df aa 3f 1c e1 86 3f
       1.4049674 1.286632 1.3349596 1.0537448
000010 4d 29 2c 3f 7d 5d 8f 3f 97 60 ae 3f a4 3c a3 3f
       0.6725052 1.1200405 1.3623227 1.2752881

l2.weight f4 [8, 8]
000000 b4 8d aa 3f 67 db 5d bf 1f 9b 05 3f 04 84 b3 bf
       1.3324494 -0.86662906 0.5218982 -1.4024663
000010 18 8a 10 40 65 ea ed bf da 50 88 3f 06 45 00 40
       2.2584286 -1.8587157 1.0649674 2.0042129
000020 96 ff 5e bf 6d 4e a7 bf 0b a7 95 be 77 5e a1 bf
       -0.87108743 -1.3070809 -0.29229006 -1.2606953
000030 dd f1 16 3f 72 78 5f bf c7 de 23 3f 26 a5 84 3f
       0.58962804 -0.8729316 0.64011806 1.0362899
000040 40 13 9d bf 3a 4f da 3f a1 24 09 3f 46 6a b7 3f
       -1.22715 1.7055428 0.53571516 1.4329307
000050 f5 bd 16 be 02 c8 4d 3e 6b 47 ae bf f9 0b 01 40
       -0.147209 0.20095828 -1.3615545 2.0163558
000060 db 6e 4f 40 ff d2 9e 3f d2 a2 f1 3f d4 ee 70 3f
       3.241141 1.2408141 1.8877814 0.9411442
000070 d0 01 c6 be 63 67 b6 bf 99 7c 4d 3f 85 c6 ec bf
       -0.38673258 -1.4250301 0.80268246 -1.8498083
000080 1c b4 1b bf 0f fc bc bd bf cf ed 3d c9 59 a5 3f
       -0.608217 -0.09227764 0.1161189 1.2918025
000090 9c cd f2 3f 6d 35 5e bf 59 8c 8f be 82 5a ff 3f
       1.8968997 -0.8680027 -0.28036764 1.9949496
0000a0 f3 dd e0 be 24 a3 56 bf 27 4f 81 3f e2 20 24 40
       -0.43919334 -0.8384268 1.010228 2.564507
0000b0 45 8a 99 3f a4 b5 42 3f d9 6f 08 bd 06 fc ff bd
       1.1995322 0.7605841 -0.03330979 -0.124992415
0000c0 0e d5 10 be ee 82 dd 3f c2 18 2b bf 16 06 d6 3f
       -0.14143774 1.7305582 -0.6683465 1.6720607
0000d0 29 62 c3 bf f5 ed 4d 40 48 a3 51 40 6a 2a 77 3f
       -1.5264331 3.2176487 3.275591 0.96549094
0000e0 01 33 45 3f 3c c1 0d 40 bd 59 47 40 45 57 9d bf
       0.7703095 2.214919 3.1148522 -1.2292258
0000f0 2e dd af bf 08 40 2a 3f 66 78 ef bf d8 e5 73 3f
       -1.3739374 0.66503954 -1.8708618 0.9527259

l2.bias f4 [8]
000000 73 ff bb 3e 99 c8 76 3d c6 12 29 bf 11 27 36 3f
       0.3671833 0.0602499 -0.6604427 0.7115336
000010 60 16 13 3f ad b2 bf bb e6 82 88 3f 11 7f 7d 3f
       0.57456017 -0.0058501572 1.0664947 0.9902201

l3.weight f4 [39, 8]
000000 1a 97 82 bf 9e 45 81 be 68 ea f1 bf 9c 42 2e 3f
       -1.0202363 -0.25248426 -1.889966 0.6807039
000010 bb 96 21 c0 84 ca 4a c0 8d 77 04 bf 3b ff 8f 3f
       -2.5248249 -3.1686106 -0.5174492 1.1249765
000020 bc 86 50 be 45 f7 8f bf d2 00 93 3d 22 c5 4a 3e
       -0.20363897 -1.1247336 0.07177891 0.19801763
000030 6d dd d0 bd d9 99 34 3e 4b 69 30 bf 33 76 94 bf
       -0.101984836 0.17636813 -0.68910664 -1.1598572
000040 2b 14 0e be 48 6e 27 be 98 af a7 bf 83 1f 7d 3e
       -0.13874881 -0.16350663 -1.3100462 0.24719052
000050 b7 d5 ad bf bb 26 f3 be 7c ee f5 be eb f4 ec 3e
       -1.3580846 -0.47490487 -0.48033512 0.46280608
000060 90 26 19 be 3c dd 16 bf 87 36 86 3e 80 57 03 c0
       -0.14956117 -0.58931327 0.26213476 -2.0522156
000070 aa b3 8e 3d b1 b4 7a bf 1b 7a 74 3d 28 87 20 bf
       0.06967862 -0.97931963 0.05968676 -0.6270623
000080 0e 4f fc 3d 77 84 0e c0 56 e0 40 c0 7a 78 33 3f
       0.12319766 -2.226835 -3.0136924 0.7010571
000090 b9 66 b8 be 56 fd 78 3e 5b 3e ee bf b2 ca 43 bf
       -0.3601587 0.2431539 -1.8612779 -0.76481164
0000a0 e7 a0 a9 bf 28 55 b0 bf 95 8d bc bc 11 98 c5 be
       -1.3252228 -1.3775988 -0.02301673 -0.3859258
0000b0 02 07 ba bc fa 1a de 3e 07 09 b8 3b b3 ea 4d bf
       -0.02270842 0.43379956 0.0056163105 -0.8043625
0000c0 e2 17 c7 be 4b 7c 02 bf 22 28 f6 be 3e 4c 06 3e
       -0.3888541 -0.50970906 -0.48077494 0.13115022
0000d0 44 43 54 bf 68 fd 4f bf e0 7d 09 c0 04 0f 53 3f
       -0.8291514 -0.8124604 -2.1483078 0.8244479
0000e0 cc 10 44 bc c5 a9 03 be b6 64 8f bf ca 58 2e 3f
       -0.011966895 -0.1285773 -1.120261 0.6810423
0000f0 cb 12 46 c0 18 83 72 bf 60 c8 ce 3e e3 df 02 c0
       -3.094897 -0.94731283 0.4038725 -2.044915
000100 08 3d 68 bf 77 c7 12 c0 84 96 04 3f 7a 75 1b c0
       -0.90718126 -2.2934244 0.5179217 -2.4290452
000110 98 28 8e 3e 36 11 2b bf d3 6e fb be 78 f6 1a 3f
       0.27765346 -0.66823137 -0.4910799 0.6053233
000120 b8 d1 83 bc 25 d3 29 3f 38 75 c6 3d ed 4f eb bf
       -0.016091213 0.66337806 0.096903265 -1.8383766
000130 33 68 13 3f 0c 6e d5 be 62 ef 95 bf dc 30 82 bf
       0.5758087 -0.41685522 -1.1713679 -1.0171161
000140 ba 54 ec bf ed f5 8d bf 46 94 71 3e 63 4d 09 c0
       -1.8463356 -1.1090676 0.23591718 -2.1453483
000150 5f ff 62 be 3d c3 0e 3f 61 c8 d2 3e 4e 95 ef bf
       -0.22167729 0.5576666 0.41168502 -1.8717439
000160 d6 d1 4d c0 b0 7a b3 be 6f 03 f1 bd 60 72 7b 3e
       -3.2159324 -0.3505454 -0.11768233 0.2455535
000170 43 74 5c bf 3c 69 1a bf 7e da b5 3e aa ef 0b be
       -0.861149 -0.60316825 0.3551826 -0.13665643
000180 09 26 80 3e ed 5c 68 c0 ff 47 3d bf dc 0c 84 3e
       0.2502902 -3.6306717 -0.7393798 0.2579106
000190 4a 28 67 be 44 40 c8 bf 30 f5 a7 3d b5 0a 2d bf
       -0.22573963 -1.5644612 0.08201063 -0.6759446
0001a0 cb 30 2c be 44 ad 40 c0 38 66 e7 bd 22 32 ee bf
       -0.16815488 -3.0105753 -0.112987936 -1.8609049
0001b0 cb b3 49 bf 0f 0e 50 bf e9 a7 74 3f a0 28 9e bf
       -0.7878997 -0.8127145 0.9556871 -1.2356148
0001c0 9c b1 79 bf cf dc b9 bf ff d1 cd 3c bb f8 dd bf
       -0.97536635 -1.452051 0.025124548 -1.7341532
0001d0 c3 77 2c 3d f4 75 1c 3f 42 39 48 be 6b 57 3c bd
       0.0421064 0.6111748 -0.19553092 -0.045981806
0001e0 3a 30 b4 bf ce ed c5 bd e6 15 fb bf 16 17 a1 3e
       -1.4077218 -0.09664498 -1.9616058 0.31462926
0001f0 0b 6e 3a c0 53 05 57 c0 5b ed 61 3f 0f f6 96 3e
       -2.9129665 -3.3597 0.882528 0.29484603
000200 20 62 1d 3e 85 ef 73 bf 88 79 70 be 89 13 c4 bf
       0.15369463 -0.9528735 -0.2348386 -1.5318462
000210 94 f3 d4 3e 77 1b 99 be e4 5a e2 bf 3a 78 42 3e
       0.41592085 -0.29903767 -1.7683988 0.18991175
000220 e3 df 10 c0 87 56 80 bd ef 14 4d c0 4c b0 a6 bf
       -2.263665 -0.06266504 -3.2044027 -1.3022552
000230 88 b5 c1 be e5 ef a5 3e 1b 94 89 3f 5a 60 2e c0
       -0.3783381 0.32409588 1.0748323 -2.7246308
000240 50 66 31 c0 16 a8 3a be 41 ac 32 3f a6 d1 2d bf
       -2.7718697 -0.18228182 0.6979409 -0.67898023
000250 13 84 b3 be 52 25 16 bf ea a2 91 be 7d 89 3c 3f
       -0.35061702 -0.58650696 -0.28444606 0.7364729
000260 f1 34 ee bf 5f 35 cb 3d 50 6b 04 c0 e8 23 42 3f
       -1.8609906 0.09922289 -2.0690498 0.7583604
000270 d5 d3 1f c0 32 ae e0 be 0c 32 3e 3f 13 05 28 c0
       -2.4973042 -0.438829 0.74295115 -2.6253097
000280 19 eb 0c c0 f6 e0 b0 be 7a 0c 57 be ce 66 df bb
       -2.2018492 -0.34546632 -0.21000853 -0.006817675
000290 6f 34 5e bf cd f7 6f 3d a5 13 19 3f f4 66 00 c0
       -0.8679876 0.05858593 0.597956 -2.0062838
0002a0 b9 e1 2b 3f ac 60 2b bf 46 28 d5 bf 6c f7 08 3c
       0.671413 -0.66944385 -1.6652915 0.008359771
0002b0 e9 c6 3a be 25 83 c4 be 85 53 d4 bf 11 25 d6 bf
       -0.1823994 -0.38381305 -1.6587988 -1.6730062
0002c0 46 84 38 3d 4f b9 1b c0 fc ee 0a c0 4a 95 0d bd
       0.04504802 -2.4331853 -2.1708364 -0.0345662
0002d0 29 cb 28 3f a1 43 2f 3e 44 f3 3b bf 97 68 2b c0
       0.65935 0.17115642 -0.7341807 -2.6782587
0002e0 d7 4b cd 3e 77 2c f7 3b 37 89 91 bf 9a 0c 43 bf
       0.40096924 0.0075431424 -1.137 -0.76191103
0002f0 b4 a5 71 3d 9a 32 19 bf 3d cf 80 3e 0e b9 02 c0
       0.058995917 -0.59842837 0.2515811 -2.0425448
000300 b6 5e 10 bf e3 df e3 bf ea e6 41 c0 2c 00 6b bd
       -0.5639452 -1.78027 -3.0297189 -0.05737321
000310 25 d8 a7 bf 51 c0 c3 bc fe 6b 39 3f e8 8f c0 be
       -1.3112837 -0.023895415 0.7243041 -0.37609792
000320 52 92 58 bf b2 3e 0b bf a9 58 e6 be 08 4e 13 bf
       -0.8459827 -0.5439254 -0.44989517 -0.5754094
000330 43 e9 a7 bf 53 c6 ae bf 5a b6 b4 3e 2b 6c 3f 3f
       -1.3118061 -1.3654274 0.35295373 0.74774426
000340 ce 0b aa bf bb b2 4e 3e e5 ed 1f c0 8c ab 63 3f
       -1.3284853 0.20185368 -2.498895 0.88933635
000350 01 3b 30 c0 8e e6 b5 be 95 50 a1 3d 8f 63 e9 bc
       -2.7536013 -0.35527462 0.07876698 -0.028489856
000360 9c 8b 9a 3d 9a d6 54 3d 74 00 16 c0 94 3a 22 3f
       0.075461596 0.051962472 -2.3437777 0.63370633
000370 8c a7 29 c0 0f 68 7e bf b0 68 f3 bf 92 87 0e 3f
       -2.6508512 -0.9937753 -1.9016323 0.55675614
000380 f8 b9 1c 3f 05 ea 80 bf 28 bc 94 bf 82 b2 5e 3f
       0.61221266 -1.0071417 -1.1619921 0.8699113
000390 56 21 ca bf 8d 6b 64 bf 92 fa 5e bf 3f 1a 20 c0
       -1.5791423 -0.8922661 -0.8710109 -2.501602
0003a0 64 51 f2 3e 9d 86 fc 3e d3 6a 0e c0 5d 40 d0 bf
       0.4732772 0.49321452 -2.22527 -1.6269642
0003b0 db dd 98 3e 58 4e d2 3e 57 fc a5 bf 2e 71 45 bf
       0.29856762 0.41075397 -1.2967633 -0.77125823
0003c0 0f 64 eb bf 77 ab cc be 1b 36 1e 3f 46 f1 bc bf
       -1.838991 -0.39974567 0.6180131 -1.4761131
0003d0 dc 00 ce be 43 e7 08 bf be 8b 03 3f 50 fa 2f bd
       -0.4023503 -0.5347788 0.51385105 -0.042963326
0003e0 d5 17 d5 bf 2d db 8c 3c 0a ed 77 bd 2a e8 b1 3e
       -1.6647898 0.017194355 -0.060528792 0.3474744
0003f0 83 79 f8 bf fe 3d a5 be d3 b1 fa be 5c 96 e5 3e
       -1.9412082 -0.3227386 -0.48963794 0.44841278

l3.bias f4 [39]
000000 39 8f 13 3f 43 60 3d be cf 1b e5 3c 2f 30 2d 3d
       0.57640415 -0.18493752 0.027967362 0.04228228
000010 d4 ae 3b 3f f6 66 1a be cd 65 b3 3e a7 e2 97 3e
       0.7331364 -0.15078339 0.35038605 0.2966511
000020 6c d1 63 be 01 5b 49 3d d2 5f 1b be 8c 5b 78 3d
       -0.22247857 0.049159054 -0.15173271 0.06063418
000030 fc b3 91 3e 3a bb 54 3e b3 43 34 be 03 82 13 bd
       0.2845763 0.20774546 -0.1760395 -0.03601266
000040 75 ba cc 3d 3b 02 44 3e 58 3a 31 be 31 de 44 3e
       0.09996501 0.19141476 -0.17307413 0.19225384
000050 f7 79 ae be ab f7 dd be 60 fb 86 3e 3e fb cf bd
       -0.34077427 -0.43353018 0.2636366 -0.101553425
000060 f9 83 3e 3e 29 4c b5 3e 38 26 e5 be 71 6c c2 be
       0.18605031 0.35409668 -0.4475572 -0.3797336
000070 a9 56 a4 3c a7 6d 7c 3e 9a 59 d1 be 87 48 79 be
       0.020060854 0.24651204 -0.40888673 -0.24344073
000080 a3 03 44 bc a4 97 bc bd 46 76 06 bf 3f 24 33 bf
       -0.011963758 -0.09208611 -0.5252422 -0.6997718
000090 42 fd 4b 3e eb db cb be d9 e0 c2 be
       0.19920829 -0.39816222 -0.3806217
